checkpoint/LeNet_73_53.pth (torch_old, 249671 bytes, 10 tensors)

module.conv1.weight f4 [6, 3, 5, 5]
-0.11362596 -0.0111117875 0.038329683 0.034623053 0.037766997 -0.022841552 0.007333417 0.04076167
0.08054999 -0.052704357 -0.06277274 -0.03802755 0.3189194 -0.042452782 -0.21150559 0.08117263
0.2860822 0.07261988 -0.54182297 0.08442639 0.075476855 -0.0580562 -0.22494218 -0.0040065087
0.2858854 0.10734725 0.040900774 0.0026802497 0.023496967 -0.086169764 0.104147166 0.05091027
-0.0728117 0.06139694 -0.084142424 0.07055968 -0.12717262 0.2343722 -0.08640876 -0.1650731
0.025275474 0.13150208 0.07509719 -0.5198885 0.1722878 -0.042195443 -0.08411208 -0.3565673
0.097874425 0.14619115 -0.13736561 -0.008000839 -0.009630782 0.046341144 -0.012916657 -0.022195328
0.025838425 -0.12161577 0.1116895 0.01909171 -0.09548367 -0.16113561 0.24646291 0.16074528
-0.078816995 0.0432544 0.17914718 0.21726854 -0.4524673 -0.010901774 0.04051554 0.018800834
-0.18502587 -0.030064762 0.22544274 0.046239514 -0.07577448 0.051097434 -0.010416134 -0.022947168
0.040366407 -0.026174126 -0.00395549 -0.13424347 0.10200363 0.0055490616 -0.07702946 0.39165422
-0.4360068 0.13889411 0.053535756 -0.3227734 0.51365143 -0.38819987 0.06768238 0.025122993
-0.115935214 0.30988637 -0.22402781 0.046582814 -0.043796733 0.045194753 -0.035722908 0.014334697
0.038085684 0.02811289 -0.072946526 0.1887091 -0.04958275 -0.023963656 -0.04606765 -0.15048224
0.34247303 -0.3215319 0.10858132 0.07689063 -0.27526143 0.62051666 -0.43050972 0.10699173
-0.04323618 -0.22193965 0.3822794 -0.17805414 -0.00804859 -0.014976356 0.04223228 -0.022141168
0.03422723 -0.054418083 -0.05219878 -0.0070414674 0.08397398 -0.052519538 -0.015047006 0.04609262
-0.20939572 0.35846382 -0.25366676 0.10063197 -0.021108871 -0.18876877 0.4321493 -0.33996242
0.12648985 0.07789721 -0.21223243 0.16797192 -0.008478537 -0.019405184 -0.042271275 0.020158838
-0.12017027 0.050144155 -0.029432975 0.04081804 -0.06684108 0.014081797 0.082505554 0.011063694
0.08502961 -0.17694049 -0.071936525 0.03493726 0.038467035 -0.030222805 0.5512872 0.421457
-0.26278904 0.11842703 -0.08530911 -0.40431774 -0.23227398 0.038071405 -0.062115774 -0.09383973
-0.019230712 -0.036609523 -0.055870477 -0.025147207 0.078527376 0.091776714 -0.05804541 0.04544497
-0.07807936 0.0015169623 -0.17404893 0.08749595 0.13818018 -0.10730648 0.08925172 0.5225497
0.50987774 -0.23900977 0.06157312 0.05214429 -0.50083274 -0.27103922 0.087636694 -0.02794005
0.0626975 0.09361273 0.051284593 0.04895593 0.0060129194 -0.14588447 0.0555759 -0.16844966
0.0003226183 0.0051496923 -0.026254546 -0.5053688 -0.14466318 -0.051616967 0.092217885 0.048211217
0.33170786 0.22416957 -0.040973905 0.012401102 0.07094328 -0.08285937 -0.024909515 0.0030924608
0.08527764 0.22537513 -0.12750249 -0.1130421 -0.07919161 -0.013044699 0.039980058 -0.1259275
-0.31724325 -0.10302381 -0.05426734 0.03871001 0.052460276 -0.24787235 -0.39226806 -0.1635588
0.07883687 0.16701858 0.29204762 0.024565853 0.044729814 0.044383425 -0.11806297 0.19469778
0.200168 0.1073519 -0.06872584 0.044104442 0.09551086 -0.027108712 0.036438618 -0.016357154
00000000: bab4 e8bd 370e 36bc 96ff 1c3d e7d0 0d3d
00000010: 91b1 1a3d 351e bbbc 294d f03b b5f5 263d
00000020: 65f7 a43d 86e0 57bd ff8e 80bd c7c2 1bbd
00000030: 6749 a33e f8e2 2dbd ec94 58be d63d a63d
00000040: 5e79 923e bbb9 943d e9b4 0abf bee7 ac3d
00000050: 9c93 9a3d 57cc 6dbd 3e57 66be 0849 83bb
00000060: 925f 923e e0d8 db3d 9287 273d 21a7 2f3b
00000070: b67c c03c c679 b0bd 1c4b d53d 4a87 503d
00000080: 4d1e 95bd 5c7b 7b3d dd52 acbd 9881 903d
00000090: 8a39 02be 44ff 6f3e 13f7 b0bd ec08 29be
000000a0: 830e cf3c 7ba8 063e 8ecc 993d 6a17 05bf
000000b0: 376c 303e 21d5 2cbd f442 acbd fd8f b6be
000000c0: 6372 c83d 22b3 153e 92a9 0cbe f315 03bc
000000d0: 6dca 1dbc 36d0 3d3d 63a0 53bc fad2 b5bc
000000e0: 1bab d33c b011 f9bd 77bd e43d 3866 9c3c
000000f0: f18c c3bd bc00 25be c660 7c3e 699a 243e
00000100: ce6a a1bd 872b 313d 5c72 373e a57b 5e3e
00000110: cba9 e7be 5b9d 32bc 9ff3 253d 3504 9a3c
00000120: 6c77 3dbe 604a f6bc 76da 663e a565 3d3d
00000130: a72f 9bbd 8b4b 513d 6fa8 2abc b3fb bbbc
00000140: 3f57 253d 1f6b d6bc 0e9d 81bb 1f77 09be
00000150: 47e7 d03d e7d4 b53b 9fc1 9dbd e786 c83e
00000160: 493c dfbe 423a 0e3e 4f48 5b3d 8e42 a5be
00000170: a97e 033f 22c2 c6be 0f9d 8a3d bcce cd3c
00000180: 716f edbd 6da9 9e3e 8c67 65be 9fcd 3e3d
00000190: 3464 33bd 221e 393d 2f52 12bd 14dc 6a3c
000001a0: bcff 1b3d 014d e63c fd64 95bd f53c 413e
000001b0: 4817 4bbd 6e4f c4bc 6fb1 3cbd 0418 1abe
000001c0: a058 af3e d49f a4be e25f de3d d678 9d3d
000001d0: 11ef 8cbe 2eda 1e3f c56b dcbe 7b1e db3d
000001e0: 6c18 31bd 2644 63be 20ba c33e d353 36be
000001f0: 3cde 03bc 645f 75bc c1fb 2c3d 6561 b5bc
00000200: da31 0c3d 7fe5 5ebd 63ce 55bd 1cbc e6bb
00000210: 8dfa ab3d ba1e 57bd b887 76bc 9dcb 3c3d
00000220: d56b 56be 9288 b73e 9ce0 81be 2218 ce3d
00000230: 83ec acbc 9a4c 41be ac42 dd3e 8e0f aebe
00000240: 8e86 013e 9388 9f3d 7553 59be d500 2c3e
00000250: 90e9 0abc 9ff7 9ebc a524 2dbd 2624 a53c
00000260: d51b f6bd f563 4d3d 6c1d f1bc d130 273d
00000270: fae3 88bd 56b7 663c acf8 a83d 7f44 353c
00000280: 0124 ae3d e32f 35be 7553 93bd 5f1a 0f3d
00000290: 9c8f 1d3d d195 f7bc 2821 0d3f 36c9 d73e
000002a0: 498c 86be df89 f23d 8bb6 aebd bc02 cfbe
000002b0: 3bd9 6dbe c3f0 1b3d 1c6d 7ebd 0b2f c0bd
000002c0: ba89 9dbc def3 15bd 71d8 64bd 8401 cebc
000002d0: f6d2 a03d 6ef5 bb3d 06c1 6dbd 8124 3a3d
000002e0: 12e8 9fbd cfd4 c63a e239 32be 1431 b33d
000002f0: 1b7f 0d3e 80c3 dbbd 9bc9 b63d d1c5 053f
00000300: 5987 023f fabe 74be 1934 7c3d 4095 553d
00000310: 9336 00bf a7c5 8abe de7a b33d 88e2 e4bc
00000320: 8c67 803d 08b8 bf3d cb0f 523d 0386 483d
00000330: 0608 c53b bd62 15be 8ea3 633d 117e 2cbe
00000340: 1825 a939 c0be a83b c613 d7bc da5f 01bf
00000350: 9622 14be 506c 53bd bbdc bc3d 2079 453d
00000360: 9dd5 a93e b58c 653e 41d4 27bd fe2d 4b3c
00000370: b64a 913d 2cb2 a9bd 0a0f ccbc e2aa 4a3b
00000380: 0ba6 ae3d bdc8 663e 0390 02be 9e82 e7bd
00000390: 362f a2bd 6fb9 55bc 21c2 233d 23f3 00be
000003a0: b56d a2be 26fe d2bd 6e47 5ebd 638e 1e3d
000003b0: 96e0 563d 40d2 7dbe 5cd7 c8be f57b 27be
000003c0: 3a75 a13d eb06 2b3e 4487 953e 543e c93c
000003d0: 9c36 373d 65cb 353d 00cb f1bd db5e 473e
000003e0: d7f8 4c3e 50db db3d 22c0 8cbd dca6 343d
000003f0: 339b c33d 1713 debc a940 153d 70ff 85bc

module.conv1.bias f4 [6]
-0.1720679 -0.08314707 -0.1846495 0.2956658 0.37052035 -0.174693
00000000: 9132 30be 0349 aabd c214 3dbe 8261 973e
00000010: d8b4 bd3e b9e2 32be

module.conv2.weight f4 [16, 6, 5, 5]
-0.17740634 0.10894986 0.19825114 0.026311703 0.058481768 -0.15212977 -0.15164723 0.11762785
0.0917062 0.026104722 -0.00598185 -0.16831428 0.06251808 0.13496298 0.09082557 0.22168821
0.03794213 0.02051109 -0.0152335325 0.065246835 0.0795778 0.21859568 0.099988975 0.13148415
0.040835332 0.058053058 -0.05619141 -0.05061336 -0.03934907 0.05864361 0.052569363 0.069951504
-0.0061410433 0.0010980872 0.044667244 0.021931008 0.12667572 0.0836603 -0.08783535 -0.06729706
0.020722734 0.11534987 0.020700652 -0.034371216 -0.051987447 -0.12069252 -0.06909193 -0.13346492
-0.21516663 -0.15376137 0.012180556 -0.2531922 -0.09110781 0.097767375 -0.098073915 -0.012805017
-0.32417762 -0.51710325 -0.19923967 -0.20035186 -0.17648874 -0.49831563 -0.78340966 -0.2840426
-0.24801156 -0.19623694 -0.38782668 -0.5552994 -0.26617473 -0.2809565 0.088216685 0.088834465
-0.08682527 -0.1137348 0.022755843 -0.07388009 0.16673687 0.14092502 -0.07377112 0.09258629
-0.29930285 0.037270617 0.0706209 -0.006436298 0.18097599 -0.3528245 -0.27699652 -0.003989541
0.0879102 0.332883 -0.22187695 -0.5904005 -0.031349543 0.13798177 0.29793814 -0.15585615
-0.45226294 -0.016109386 0.2503355 0.33796343 0.1201867 0.010993902 -0.08205298 0.09548209
0.17838962 -0.08114128 -0.17106421 -0.08055026 0.05757193 -0.008692123 -0.028090706 -0.06441003
-0.018847652 -0.05728918 0.1084789 0.12633729 0.117324084 0.1084403 0.09355052 0.03898896
0.22812633 0.22753802 0.19275744 0.2453875 -0.004288483 0.054966353 0.26796257 0.1389831
-0.04437981 -0.13291022 -0.03889736 0.009905073 -0.109245025 -0.043771412 0.065652534 0.05275089
-0.16556619 -0.054678317 0.036890205 -0.062356144 -0.14846675 -0.3736894 -0.0867621 -0.08886198
0.08855119 -0.0391013 0.071105525 0.07423705 0.2911494 0.08761085 -0.43341023 -0.05089838
-0.1871384 -0.0243164 0.0710471 -0.32850316 -0.4213404 -0.01833266 0.35249573 0.36499035
-0.029059494 -0.0026560547 0.34711218 0.25903267 0.1141571 0.073855504 -0.064658396 0.085925736
0.031335145 0.00012412854 0.037917133 -0.021247603 0.02609083 0.051757045 -0.052094907 -0.21046068
-0.6773592 -0.6052249 -0.5494238 -0.20642133 0.13933621 -0.75408304 -2.1063912 -0.8496294
0.0078053153 0.095916845 -0.057255246 -0.59763896 -0.07124182 0.14715526 0.01629574 0.045751564
0.006843183 0.0312538 0.045824688 -0.0021621338 0.0046316274 0.2215864 0.16676149 0.048323084
-0.07662163 -0.08837727 -0.26180917 -0.32632244 -0.28364712 0.16303048 -0.2055279 -0.5927345
-0.47524074 0.005345608 -0.04685524 0.058445327 -0.13503128 -0.01964526 0.2554703 -0.06473836
-0.15971611 0.23370276 0.06459593 -0.08205519 0.027429076 0.02628547 -0.011128405 -0.006131725
0.087908916 -0.0052915756 -0.0877608 -0.045090396 0.026458329 -0.0117378505 0.04570335 -0.3296352
-0.22614548 -0.15022455 -0.13988847 0.11326211 0.2100169 0.0135533055 0.095172584 0.051422127
0.081160694 0.3262063 0.28135395 0.12800904 -0.008284701 0.14699748 0.083046384 0.07317406
-0.09706859 -0.19392492 0.14919163 -0.01764715 0.035832547 0.02873529 0.032078296 0.24401686
00000000: 02aa 35be 1b21 df3d 5902 4b3e a48b d73c
00000010: 948a 6f3d e8c7 1bbe 6949 1bbe dfe6 f03d
00000020: 76d0 bb3d 92d9 d53c 6503 c4bb 945a 2cbe
00000030: 7b09 803d bc33 0a3e c202 ba3d 3c02 633e
00000040: 3569 1b3d e006 a83c 1196 79bc 22a0 853d
00000050: b0f9 a23d 8cd7 5f3e 05c7 cc3d c8a3 063e
00000060: f342 273d 0bc9 6d3d f728 66bd f44f 4fbd
00000070: 7e2c 21bd 4834 703d f952 573d bc42 8f3d
00000080: ce3a c9bb b1ed 8f3a 00f5 363d a8a8 b33c
00000090: 48b7 013e 1756 ab3d 05e3 b3bd 0ad3 89bd
000000a0: b9c2 a93c 8d3c ec3d 6a94 a93c d5c8 0cbd
000000b0: caf0 54bd a42d f7bd 1280 8dbd 07ab 08be
000000c0: a454 5cbe 9f73 1dbe f490 473c 68a2 81be
000000d0: bb96 babd 433a c83d fada c8bd 22cc 51bc
000000e0: 9cfa a5be e160 04bf 7c05 4cbe 0a29 4dbe
000000f0: 77b9 34be 3a23 ffbe 898d 48bf 086e 91be
00000100: bef6 7dbe 56f2 48be 3891 c6be 1a28 0ebf
00000110: 0e48 88be 88d9 8fbe f3aa b43d d8ee b53d
00000120: 72d1 b1bd caed e8bd 766a ba3c 724e 97bd
00000130: 12bd 2a3e a64e 103e 5015 97bd e19d bd3d
00000140: 393e 99be 13a9 183d b1a1 903d 95e7 d2bb
00000150: c551 393e 6aa5 b4be 7dd2 8dbe b2ba 82bb
00000160: 430a b43d a46f aa3e b633 63be 7d24 17bf
00000170: 6168 00bd 184b 0d3e 598b 983e c198 1fbe
00000180: 028f e7be d5f7 83bc fa2b 803e 8b09 ad3e
00000190: 7224 f63d c41f 343c 650b a8bd 1d8c c33d
000001a0: c5ab 363e 662d a6bd 752b 2fbe 89f7 a4bd
000001b0: 8bd0 6b3d 6869 0ebc 7b1e e6bc 68e9 83bd
000001c0: 6466 9abc 0fa8 6abd 2f2a de3d 905e 013e
000001d0: 9c47 f03d f315 de3d 6a97 bf3d e3b2 1f3d
000001e0: f399 693e baff 683e 3562 453e dc46 7b3e
000001f0: 6786 8cbb 6624 613d 6432 893e 9651 0e3e
00000200: 9bc7 35bd 9e19 08be d752 1fbd e348 223c
00000210: dbbb dfbd a749 33bd d674 863d 5111 583d
00000220: 2f8a 29be 5ff6 5fbd 2f1a 173d 2869 7fbd
00000230: ab07 18be 3854 bfbe 54b0 b1bd 45fd b5bd
00000240: 545a b53d af28 20bd c69f 913d 9809 983d
00000250: 8911 953e 516d b33d f2e7 ddbe d27a 50bd
00000260: 35a1 3fbe 3033 c7bc 2481 913d 9131 a8be
00000270: eeb9 d7be 602e 96bc 527a b43e 04e0 ba3e
00000280: 2d0e eebc 3411 2ebb b0b8 b13e ee9f 843e
00000290: 33cb e93d 8e41 973d 9f6b 84bd d5f9 af3d
000002a0: 4859 003d 8028 0239 ff4e 1b3d 740f aebc
000002b0: 70bc d53c 32ff 533d 7861 55bd 0183 57be
000002c0: 6a67 2dbf 05f0 1abf 0aa7 0cbf 1d60 53be
000002d0: 27ae 0e3e 960b 41bf 1dcf 06c0 5081 59bf
000002e0: bbc3 ff3b 0d70 c43d 7a84 6abd defe 18bf
000002f0: 3be7 91bd deaf 163e a57e 853c fe65 3b3d
00000300: c83c e03b fc03 003d abb2 3b3d 96b2 0dbb
00000310: e8c4 973b 8ce7 623e 86c3 2a3e 6dee 453d
00000320: cdeb 9cbd 24ff b4bd da0b 86be bc13 a7be
00000330: 323a 91be 76f1 263e e875 52be 73bd 17bf
00000340: c152 f3be 362a af3b 48eb 3fbd 5e64 6f3d
00000350: a445 0abe 19ef a0bc 01cd 823e 8c95 84bd
00000360: 9f8c 23be c74f 6f3e df4a 843d 8d0c a8bd
00000370: f1b2 e03c a054 d73c ea53 36bc a3ec c8bb
00000380: 9709 b43d f464 adbb efbb b3bd b5b0 38bd
00000390: 23bf d83c 1d50 40bc 7033 3b3d f2c5 a8be
000003a0: ae92 67be 77d4 19be ec3e 0fbe f7f5 e73d
000003b0: ac0e 573e af0e 5e3c d8e9 c23d 02a0 523d
000003c0: 9437 a63d 8304 a73e a00d 903e cd14 033e
000003d0: 8ebc 07bc 8286 163e 3914 aa3d 48dc 953d
000003e0: e6cb c6bd 4194 46be b1c5 183e c290 90bc
000003f0: 26c5 123d 4566 eb3c 8864 033d 8edf 793e

module.conv2.bias f4 [16]
0.5620658 0.8470355 -1.0784836 0.55570376 -0.035990555 1.0789957 -0.13092755 0.094177224
0.31187248 -0.3891101 0.29256913 -0.043582425 0.032642912 -0.13968886 -0.55739003 1.5043339
00000000: 8be3 0f3f 52d7 583f c00b 8abf 9a42 0e3f
00000010: d56a 13bd 881c 8a3f df11 06be fddf c03d
00000020: c0ad 9f3e 7039 c7be 9fcb 953e 7c83 32bd
00000030: 93b4 053d 990a 0fbe 1db1 0ebf 038e c03f

module.fc1.weight f4 [120, 400]
-0.19118714 0.1728548 0.33697802 0.40538868 -0.030455556 -0.21998137 0.046540204 0.028066391
0.18943301 -0.014710667 0.03758112 0.088804536 -0.06282062 0.12770404 0.009474843 0.0593219
0.0037833015 0.019717457 0.04789438 0.07478394 0.2577175 0.12155699 0.32807136 0.11823395
0.20748557 -0.3032295 0.09291294 0.03667317 -0.090697445 -0.26284996 0.16211006 0.20782186
0.41203526 0.22333361 -0.017606396 -0.11376512 0.13612874 0.44611436 0.34623435 -0.05692982
0.093971394 0.24346589 0.25765374 0.08914003 0.1067954 0.051987857 0.07085651 -0.12798241
-0.14589491 -0.18968812 -0.008629684 0.042821668 -0.111122355 -0.15774167 0.15077673 0.015816659
0.004461682 -0.14864635 -0.15211661 -0.08173978 -0.3225688 -0.10473231 -0.36666963 -0.40753347
-0.38157865 -0.27276534 0.1335258 -0.0015201409 -0.16606325 -0.4000032 0.01713614 0.2968203
0.12604477 8.4776984e-05 -0.04455952 0.3805312 0.100615315 0.26644972 0.42389148 0.49882686
-0.10730057 0.023397844 0.02565468 -0.01810445 0.18126872 -0.078231476 0.03650237 8.1227256e-05
0.07676033 0.3048238 -0.15960798 -0.123457864 -0.07674546 -0.072126456 0.057778556 -0.14037557
-0.21023019 -0.17097527 -0.08222681 0.2603501 -0.12205667 0.051090267 -0.22973423 -0.1957949
-0.11481875 0.14169733 0.15752459 0.006561376 0.006775132 0.04182135 -0.023009477 0.10905059
0.09126247 0.061967354 0.018791683 0.038884938 0.0576321 0.19071801 0.28183368 -0.02626578
0.11535401 -0.06449543 0.065217435 0.14355278 -0.21171385 0.2275968 -0.11933293 -0.057122387
0.021961225 0.42351604 -0.12495502 -0.5612195 -0.34658626 -0.16663784 -0.000504014 -0.1079597
-0.3145232 -0.112400815 0.06484969 0.06270785 0.044968728 -0.10483456 0.094819546 0.20395325
0.45438665 -0.012568884 -0.11411614 -0.002952833 -0.009572584 0.08900615 -0.047603823 0.23846257
0.40991426 0.444859 0.31296882 0.052812792 0.27927017 0.2790012 0.32068723 0.253633
0.055252984 0.023521999 0.0594567 0.17806737 -0.016698012 -0.21619943 -0.11519264 0.0034471934
-0.109662116 0.059059255 -0.15041411 -0.3204867 -0.1711733 0.03858911 -0.07282603 0.33322397
0.34092584 0.059399415 -0.09913913 -0.4219022 -0.070909 0.22929987 0.054259706 -0.14926273
-0.059952028 -0.10255285 -0.032027137 -0.15277839 -0.11673859 -0.15864344 0.058764547 -0.008263437
0.009701749 -0.004369978 0.108276226 0.3417824 0.3356799 0.29912022 0.08988863 0.08433768
0.15072118 -0.037006445 -0.18260373 -0.17160809 0.2509517 0.33513072 0.24585882 0.09924424
0.031298086 0.19162512 0.20598511 0.17122698 0.13488555 0.013357783 -0.020147523 0.023076003
-0.02917129 -0.012138169 -0.013812006 -0.16373436 -0.16045958 -0.21977955 -0.049644683 0.003136507
-0.104400486 0.2152848 -0.1472858 -0.31092733 -0.07346977 0.4818016 0.22907987 -0.007023674
-0.07979028 -0.06714176 0.19901842 0.4962277 0.18781686 0.2832934 0.1007455 0.4649499
0.16140807 0.24146587 0.133409 0.12810947 -0.0005582949 0.07550773 0.10094408 -0.06795101
-0.14005229 -0.04991172 0.18114498 0.08890012 0.083971255 0.045124274 -0.031666648 -0.0051013133
00000000: 90c6 43be d900 313e 6288 ac3e 1b8f cf3e
00000010: ee7d f9bc cc42 61be f1a0 3e3d 7deb e53c
00000020: bafa 413e 0205 71bc a9ee 193d 27df b53d
00000030: 19a8 80bd d9c4 023e 5f3c 1b3c 85fb 723d
00000040: 44f1 773b 8186 a13c e62c 443d 5328 993d
00000050: 8cf3 833e dff2 f83d f8f8 a73e a424 f23d
00000060: 1977 543e e640 9bbe 2449 be3d 9b36 163d
00000070: 95bf b9bd 4594 86be 2e00 263e 41cf 543e
00000080: 49f6 d23e 91b1 643e 4a3b 90bc b0fd e8bd
00000090: 5565 0b3e 1a69 e43e a145 b13e 3e2f 69bd
000000a0: 1374 c03d 1f4f 793e 31eb 833e 0c8f b63d
000000b0: 8cb7 da3d 38f1 543d 381d 913d d20d 03be
000000c0: 7a65 15be 9a3d 42be 8563 0dbc c665 2f3d
000000d0: 1e94 e3bd 0887 21be 3765 1a3e f091 813c
000000e0: 4d33 923b c036 18be 75c4 1bbe 3067 a7bd
000000f0: bd27 a5be e57d d6bd 1fbc bbbe 3aa8 d0be
00000100: 475e c3be e6a7 8bbe fdba 083e 773f c7ba
00000110: 7c0c 2abe 38cd ccbe 1761 8c3c d5f8 973e
00000120: e111 013e 4cca b138 0b84 36bd fcd4 c23e
00000130: 670f ce3d 196c 883e 4e08 d93e 3c66 ff3e
00000140: 67c0 dbbd d6ac bf3c c329 d23c c94f 94bc
00000150: 829e 393e d337 a0bd 8283 153d 8d58 aa38
00000160: 8534 9d3d dd11 9c3e 4670 23be 7ad7 fcbd
00000170: b92c 9dbd 09b7 93bd 35a9 6c3d 9dbe 0fbe
00000180: 9546 57be 2414 2fbe 8866 a8bd 9c4c 853e
00000190: d9f8 f9bd 0744 513d 733f 6bbe 757e 48be
000001a0: 1826 ebbd 1b19 113e 204e 213e d000 d73b
000001b0: ed01 de3b dd4c 2b3d 5f7e bcbc ea55 df3d
000001c0: d1e7 ba3d 7bd1 7d3d 04f1 993c d045 1f3d
000001d0: a30f 6c3d 954b 433e 814c 903e 552b d7bc
000001e0: b93e ec3d 2e16 84bd b890 853d 80ff 123e
000001f0: 84cb 58be 230f 693e d364 f4bd 2af9 69bd
00000200: 07e8 b33c 18d7 d83e 6be8 ffbd 15ac 0fbf
00000210: c173 b1be 1ca3 2abe cf1f 04ba fa19 ddbd
00000220: 2f09 a1be 6632 e6bd eacf 843d f96c 803d
00000230: 2131 383d 80b3 d6bd c030 c23d 1fd9 503e
00000240: 5ea5 e83e b8ed 4dbc b9b5 e9bd 5184 41bb
00000250: 54d6 1cbc db48 b63d 3afc 42bd 882f 743e
00000260: 48e0 d13e 8fc4 e33e 733d a03e 3a52 583d
00000270: 80fc 8e3e 3fd9 8e3e 1e31 a43e 2fdc 813e
00000280: f450 623d 35b1 c03c de88 733d 4b57 363e
00000290: 45ca 88bc 6263 5dbe 1eea ebbd 4fea 613b
000002a0: 8896 e0bd 1ee8 713d 2806 1abe d516 a4be
000002b0: 0e48 2fbe 9d0f 1e3d d025 95bd 559c aa3e
000002c0: d58d ae3e cd4c 733d 7509 cbbd 9103 d8be
000002d0: bd38 91bd 96cd 6a3e 6d3f 5e3d 54d8 18be
000002e0: 4290 75bd 3b07 d2bd e32e 03bd f071 1cbe
000002f0: a414 efbd 6d73 22be 18b3 703d 5e63 07bc
00000300: 16f4 1e3c 0832 8fbb edbf dd3d 1afe ae3e
00000310: 3cde ab3e 4926 993e 8817 b83d 3cb9 ac3d
00000320: a756 1a3e 1294 17bd 79fc 3abe 08ba 2fbe
00000330: be7c 803e 4196 ab3e 6ac2 7b3e 9040 cb3d
00000340: 6c32 003d 6039 443e c3ed 523e 2056 2f3e
00000350: 701f 0a3e 9ada 5a3c 6b0c a5bc e309 bd3c
00000360: a1f8 eebc 2cdf 46bc c14b 62bc fba9 27be
00000370: 844f 24be e40d 61be 3958 4bbd db8d 4d3b
00000380: eccf d5bd 9e73 5c3e 17d2 16be de31 9fbe
00000390: 5277 96bd b3ae f63e ea93 6a3e d926 e6bb
000003a0: 1669 a3bd 9e81 89bd 7ccb 4b3e 8f11 fe3e
000003b0: 1053 403e d50b 913e a853 ce3d ea0d ee3e
000003c0: 2848 253e d442 773e 5e9c 083e 212f 033e
000003d0: 895a 12ba cca3 9a3d c5bb ce3d e629 8bbd
000003e0: de69 0fbe 3b70 4cbd 127e 393e 4411 b63d
000003f0: 1ff9 ab3d 3bd4 383d e3b4 01bd eb28 a7bb

module.fc1.bias f4 [120]
-2.3126466 1.3404014 0.3470571 -0.014693106 0.72457707 -0.04869306 0.9874062 0.61544216
0.6703282 -0.7113338 0.3465301 0.491442 0.52531034 0.01805436 -0.3231817 1.6394035
-0.015576843 0.27358156 0.8349395 0.035688292 -0.071202815 1.7081603 0.1922058 -0.9671508
0.7618736 -0.99351776 0.6044987 -0.569843 1.1493812 -1.7179675 0.28347588 -2.3647516
-1.5406575 1.1495675 0.014315617 -0.6572319 0.74960643 -1.3575782 -0.06507644 -0.00035936432
1.0053139 -0.049867027 -0.00969147 0.9195129 0.039804015 -0.04716398 0.7443444 -0.024646733
-0.12272264 -1.6901709 -0.06312302 0.78980994 -0.015947344 -0.04308134 0.54077744 0.5542007
-0.6470268 0.52997184 0.8084621 0.02184832 -0.04660333 0.015426454 0.48121426 -0.04369159
0.90832853 -0.038529847 1.4755145 0.47160712 -0.07631577 0.037462927 0.08933674 -0.05738772
0.024300246 0.005871981 -0.022264918 0.28177556 -0.036956728 1.3898401 -0.072840475 -0.31307766
-0.8098415 -0.14159502 0.68186325 -0.47569317 -2.1966653 -0.065231584 1.7107247 -0.12780148
-0.057969708 -0.19014533 1.8303365 -0.5685728 -0.039939635 1.0484247 0.6400057 -0.005631516
-0.6317011 -0.03424432 0.93628997 0.26384565 1.699752 0.025769398 2.2181118 0.4228083
1.7270201 -0.014026184 1.7500682 -0.00016335986 -0.06148841 1.1607594 -0.04861855 -0.16062437
1.3208929 -0.0020266878 0.07128964 1.6600242 -0.08805354 -0.13663736 -1.6155655 0.9654365
00000000: 6702 14c0 4692 ab3f 78b1 b13e 5abb 70bc
00000010: e27d 393f 6072 47bd a7c6 7c3f 9e8d 1d3f
00000020: a19a 2b3f f919 36bf 656c b13e 499e fb3e
00000030: bd7a 063f bde6 933c 1278 a5be f9d7 d13f
00000040: 0436 7fbc e212 8c3e 98be 553f e32d 123d
00000050: c8d2 91bd ffa4 da3f 99d1 443e 3297 77bf
00000060: 260a 433f 2e57 7ebf 6dc0 1a3f 3be1 11bf
00000070: ec1e 933f 5ce6 dbbf c023 913e 1758 17c0
00000080: 4434 c5bf 0725 933f 0d8c 6a3c 5a40 28bf
00000090: 35e6 3f3f 1fc5 adbf cc46 85bd 1069 bcb9
000000a0: 20ae 803f 5e41 4cbd f9c8 1ebc 3365 6b3f
000000b0: 8909 233d 042f 41bd 5b8d 3e3f f2e7 c9bc
000000c0: 0256 fbbd 8557 d8bf a446 81bd fc30 4a3f
000000d0: 01a4 82bc 0f76 30bd 6470 0a3f 19e0 0d3f
000000e0: 8ca3 25bf 3cac 073f 5ff7 4e3f 3ffb b23c
000000f0: 22e3 3ebd 3dbf 7c3c b761 f63e f4f5 32bd
00000100: 3888 683f 79d1 1dbd a9dd bc3f 7d76 f13e
00000110: 714b 9cbd ba72 193d 2ef6 b63d 630f 6bbd
00000120: 4f11 c73c bf69 c03b eb64 b6bc e344 903e
00000130: f05f 17bd 48e6 b13f 632d 95bd b74b a0be
00000140: c651 4fbf 49fe 10be 978e 2e3f 0e8e f3be
00000150: 2a96 0cc0 2398 85bd 07f9 da3f 64de 02be
00000160: a571 6dbd 75b5 42be 7748 ea3f fd8d 11bf
00000170: be97 23bd c832 863f 6ad7 233f 9588 b8bb
00000180: 2ab7 21bf c643 0cbd b3b0 6f3f c716 873e
00000190: 7991 d93f 581a d33c 8bf5 0d40 547a d83e
000001a0: ff0e dd3f 14ce 65bc 3c02 e03f 944b 2bb9
000001b0: 45db 7bbd c493 943f 3f24 47bd b77a 24be
000001c0: 0513 a93f 2ed2 04bb 4e00 923d ac7b d43f
000001d0: 6a55 b4bd aaea 0bbe daca cebf d926 773f

module.fc2.weight f4 [84, 120]
-0.02080202 0.038559377 0.00035533975 0.024893299 -0.061052714 -0.07170692 -0.11031749 -0.032953527
0.01493529 -0.033556174 -0.07847346 -0.059989963 -0.018922485 -0.07851531 0.0015188674 0.019116223
0.04166636 -0.0058878753 -0.06951998 0.08116682 0.012312017 -0.06710174 0.039646942 -0.08886228
-0.01875282 -0.037081838 -0.072640516 -0.05590957 0.017848022 -0.03683809 -0.052477766 -0.035960145
0.024435489 -0.054738034 0.030530043 -0.022366961 -0.02851197 -0.0796745 0.0055799633 -0.008272998
0.06886688 -0.046032533 0.001885742 -0.09878692 -0.04028083 -0.071819305 -0.03976582 -0.0027552024
0.06528562 -0.036408797 0.037134483 0.039199304 0.06862871 -0.08247613 0.04060023 0.034880903
-0.12535734 -0.05723434 -0.02390432 0.05567962 0.0658592 0.044837296 -0.008658055 0.047487274
-0.029895809 0.07012431 -0.118483625 0.01451977 0.072843894 0.073328644 -0.089511566 -0.062003743
0.087124586 0.06334455 0.052117288 0.049592044 -0.07671119 -0.036087256 0.07667336 -0.091629975
-0.052016523 0.0138313295 -0.07354396 0.0030813664 -0.061445456 -0.0522795 -0.031405307 0.044658225
-0.026816033 -0.06527502 -0.12255231 -0.08210068 0.018794067 -0.05041066 -0.066540204 0.007690944
0.039350823 0.062480047 -0.072161905 0.03050379 0.00034834954 -0.02697128 -0.06870737 -0.027753245
-0.036339547 0.001580663 -0.061620533 -0.06176413 -0.045210693 -0.107466005 -0.05056771 -0.030087698
0.001261796 -0.089013025 -0.076686695 -0.043223985 -0.06815356 -0.06819687 0.030775968 0.032983646
0.11087857 0.15366203 -0.15895844 -0.07238154 -0.23809707 0.025907999 -0.22069024 0.016572164
0.11791561 -0.421622 0.32523575 -0.37234974 -0.0044157105 -0.009817012 0.09806289 -0.045024183
-0.0021095139 0.37383434 0.12601666 0.029060094 -0.059866432 0.24349594 -0.29114753 -0.09644532
-0.3304102 -0.13278069 0.09665562 0.10226628 -0.049755786 -0.2277041 -0.18594177 0.16517676
0.23889484 -0.1723506 0.07388712 -0.08678964 0.1279081 0.20912272 0.09043092 0.05451972
0.028043846 0.037094768 -0.03138232 0.13871959 0.008137846 0.07320591 0.008581095 0.036311418
-0.07377185 0.25397614 -0.09129322 0.07411609 0.13115185 -0.012292082 -0.0282153 -0.087660216
-0.13145107 -0.019841827 -0.021552134 0.046758637 0.049893532 -0.04741833 -0.33257294 -0.0409121
-0.19500151 0.041510254 -0.14410166 -0.066254966 0.069860876 -0.026162243 -0.104457304 0.0854295
-0.04133511 0.032099243 -0.008284647 0.1525312 -0.05589836 0.044906206 -0.055105917 -0.15437554
0.062837936 -0.09200024 0.2453354 -0.14184026 -0.31874472 -0.059419066 -0.07818235 0.044723522
-0.031557284 -0.054273225 -0.23070768 -0.033485133 0.04114186 0.038150772 -0.072645284 -0.08695204
0.08879336 -0.022415863 0.30190712 -0.062427703 -0.02219272 0.035703614 0.1029591 -0.033035662
-0.10510889 0.057322286 -0.0366632 0.0013210496 -0.011735783 0.0055734115 -0.0621802 -0.17199767
-0.13271648 0.0027755375 -0.13410299 -0.17043719 -0.039265227 0.11947606 0.034924775 -0.22106273
-0.04411764 -0.028110232 -0.06418605 0.018015303 0.015619594 0.056731544 -0.0022753354 -0.05345237
0.0018159217 -0.10679884 0.022070117 -0.024739765 0.021503696 -0.028454144 0.014279571 -0.063115105
00000000: ff68 aabc 70f0 1d3d e54c ba39 08ed cb3c
00000010: 6912 7abd 14db 92bd 23ee e1bd 47fa 06bd
00000020: 26b3 743c 3372 09bd b2b6 a0bd 09b8 75bd
00000030: 5403 9bbc a3cc a0bd bc14 c73a a099 9c3c
00000040: 58aa 2a3d 14ef c0bb 7e60 8ebd ca3a a63d
00000050: 58b8 493c a36c 89bd d564 223d 6dfd b5bd
00000060: 849f 99bc 20e3 17bd 8dc4 94bd 6f01 65bd
00000070: 0436 923c 89e3 16bd edf2 56bd f24a 13bd
00000080: ef2c c83c fd34 60bd 241a fa3c eb3a b7bc
00000090: ef91 e9bc 622c a3bd 20d8 b63b 788b 07bc
000000a0: 140a 8d3d 9c8c 3cbd 002b f73a cc50 cabd
000000b0: 83fd 24bd 0016 93bd 7ce1 22bd a090 34bb
000000c0: 78b4 853d 6421 15bd 541a 183d 738f 203d
000000d0: 368d 8c3d 3fe9 a8bd 6d4c 263d 47df 0e3d
000000e0: ad5d 00be 8e6e 6abd fed2 c3bc 5010 643d
000000f0: 30e1 863d 50a7 373d 84da 0dbc 0482 423d
00000100: 0ee8 f4bc 569d 8f3d 8ba7 f2bd 54e4 6d3c
00000110: 2e2f 953d 542d 963d d751 b7bd a3f7 7dbd
00000120: 606e b23d caba 813d f078 553d 0721 4b3d
00000130: c21a 9dbd 3bd0 13bd ec06 9d3d 7fa8 bbbd
00000140: 470f 55bd cd9c 623c 379e 96bd c0f0 493b
00000150: 3bae 7bbd 0723 56bd daa2 00bd 8beb 363d
00000160: 4cad dbbc e9ae 85bd b5fc fabd 6724 a8bd
00000170: 04f6 993c 697b 4ebd 3b46 88bd 5004 fc3b
00000180: 542e 213d 14eb 7f3d 9fc9 93bd 16e3 f93c
00000190: afa2 b639 e0f2 dcbc 73b6 8cbd c65a e3bc
000001a0: c7d8 14bd 402e cf3a d065 7cbd 62fc 7cbd
000001b0: d92e 39bd 2317 dcbd 1620 4fbd 7a7a f6bc
000001c0: d962 a53a 764c b6bd ea0d 9dbd a20b 31bd
000001d0: 1894 8bbd cdaa 8bbd e21d fc3c dc19 073d
000001e0: 4e14 e33d 9459 1d3e 00c6 22be c63c 94bd
000001f0: b8cf 73be 033d d43c 9ffc 61be 59c2 873c
00000200: bd7d f13d d7de d7be 4d85 a63e a0a4 bebe
00000210: aab1 90bb 88d7 20bc 32d5 c83d 476b 38bd
00000220: c53f 0abb 3767 bf3e 830a 013e 6f0f ee3c
00000230: 8136 75bd 0057 793e 4a11 95be 2085 c5bd
00000240: 872b a9be a9f7 07be 62f3 c53d fc70 d13d
00000250: b9cc 4bbd 432b 69be 8567 3ebe 1924 293e
00000260: d9a0 743e ad7c 30be 2152 973d c4be b1bd
00000270: 57fa 023e 4424 563e d933 b93d 1250 5f3d
00000280: 35bc e53c aff0 173d bf8a 00bd 820c 0e3e
00000290: 9a54 053c fbec 953d b997 0c3c 48bb 143d
000002a0: b215 97bd 2909 823e f1f7 babd 2dca 973d
000002b0: ac4c 063e bb64 49bc c623 e7bc 3387 b3bd
000002c0: 1c9b 06be 548b a2bc 1a8e b0bc fc85 3f3d
000002d0: 295d 4c3d b939 42bd 0047 aabe 7293 27bd
000002e0: 7aae 47be a806 2a3d 638f 13be afb0 87bd
000002f0: 3813 8f3d 3352 d6bc b6ed d5bd a9f5 ae3d
00000300: 014f 29bd 7f7a 033d 54bc 07bc 2431 1c3e
00000310: aef5 64bd 92ef 373d beb6 61bd 9f14 1ebe
00000320: 2db1 803d 9f6a bcbd 3439 7b3e 933e 11be
00000330: 8232 a3be 6861 73bd 111e a0bd 0330 373d
00000340: 3642 01bd 9a4d 5ebd a23e 6cbe b527 09bd
00000350: 5e84 283d fc43 1c3d 0dc7 94bd e913 b2bd
00000360: 4bd9 b53d 79a1 b7bc 9293 9a3e 31b4 7fbd
00000370: 82cd b5bc f43d 123d 38dc d23d 6750 07bd
00000380: 5443 d7bd c6ca 6a3d 272c 16bd 1227 ad3a
00000390: 7147 40bc 2aa1 b63b aab0 7ebd 2820 30be
000003a0: d4e6 07be cbe5 353b 4b52 09be 1687 2ebe
000003b0: 93d4 20bd ddaf f43d 480d 0f3d 455e 62be
000003c0: b3b4 34bd 6e47 e6bc fa73 83bd d494 933c
000003d0: 53e9 7f3c 565f 683d cb1d 15bb dff0 5abd
000003e0: 3904 ee3a 5ab9 dabd 64cc b43c 0cab cabc
000003f0: 8528 b03c aa18 e9bc ddf4 693c 7e42 81bd

module.fc2.bias f4 [84]
-0.07669271 0.8957853 -0.063967876 1.8767416 0.24409756 -0.15100348 -0.0762344 0.104962945
-0.3035593 -0.31396937 -0.37734902 -0.061475612 1.6268073 -0.42846435 -0.14759162 1.2011765
1.2853065 1.3447195 1.3315672 0.26130617 1.5771079 0.635556 1.6515709 -0.051566295
1.2738993 -0.5212531 0.16524456 -0.12590873 -0.6461497 1.1497401 1.7079539 -0.28391522
0.0182036 -0.2094422 1.436139 0.03877638 0.8205551 1.6771541 0.88185316 1.699344
-0.05933975 1.1860995 1.6987662 -0.36326918 0.6151102 1.1700253 1.4293348 -0.08754019
0.27684498 0.31355798 -0.0664805 -0.00053303497 1.6280246 -0.17167154 0.78028107 -0.12432991
0.6325058 0.8198689 0.77665645 1.2548182 1.00143 -0.110418245 0.4199169 1.0541031
0.17425364 -0.048857365 1.3781823 1.4329829 0.2548651 -0.009264743 0.002461311 -0.36994904
-0.14949986 0.44628346 -1.1329666 1.3042296 1.3001528 1.2260238 0.1610356 -0.0344752
1.1348931 0.6619964 0.90843195 0.3291103
00000000: 1111 9dbd 2f52 653f 9701 83bd 1239 f03f
00000010: b6f4 793e a8a0 1abe c820 9cbd d0f6 d63d
00000020: 206c 9bbe 98c0 a0be e433 c1be dacd 7bbd
00000030: 393b d03f ae5f dbbe 4222 17be 27c0 993f
00000040: ec84 a43f c51f ac3f cb70 aa3f ecc9 853e
00000050: acde c93f ccb3 223f ad66 d33f 2e37 53bd
00000060: 220f a33f d870 05bf df35 293e 38ee 00be
00000070: 116a 25bf af2a 933f 3c9e da3f 565d 91be
00000080: b71f 953c 0478 56be 67d3 b73f fbd3 1e3d
00000090: e60f 523f fcac d63f 21c1 613f 1b84 d93f
000000a0: 3d0e 73bd 1cd2 973f 2c71 d93f 6bfe b9be
000000b0: dd77 1d3f 64c3 953f 71f4 b63f 4548 b3bd
000000c0: a0be 8d3e ac8a a03e ee26 88bd 5fbb 0bba
000000d0: 1c63 d03f aaca 2fbe 80c0 473f aea0 febd
000000e0: e6eb 213f eee2 513f f5d2 463f e29d a03f
000000f0: dc2e 803f f622 e2bd 59ff d63e daec 863f
00000100: 8c6f 323e a91e 48bd 4768 b03f fc6b b73f
00000110: ae7d 823e 26cb 17bc f24d 213b f669 bdbe
00000120: 7e16 19be 447f e43e 0d05 91bf fff0 a63f
00000130: 686b a63f 59ee 9c3f 84e6 243e de35 0dbd
00000140: 2d44 913f 9978 293f ff8e 683f 2581 a83e

module.fc3.weight f4 [10, 84]
-0.007392057 0.1217364 0.00636513 -0.06637938 -0.048701923 -0.052382715 -0.0074637914 -0.0032568823
-0.014761373 0.017220238 -0.047038577 -0.06601887 -0.09424265 0.07578442 0.045319196 0.021102587
0.027838888 -0.068407506 0.030263092 -0.04709698 -0.12604755 -0.02920092 -0.02203776 0.02360717
-0.15392776 0.038991053 -0.14422227 -0.04765071 0.009128383 0.018165383 0.08573387 -0.0394566
0.078703046 0.06265311 0.11377217 -0.13114242 -0.05266938 0.035803743 0.037640437 0.14154485
-0.09730476 -0.0444287 -0.13392878 -0.09875113 0.06161093 -0.10461556 0.012141857 -0.045403622
0.015969815 0.021677006 -0.10327375 0.10746488 -0.044166118 0.08695222 -0.11166018 0.014430114
-0.14269939 0.09767634 -0.055140495 0.031295273 -0.101677835 0.0105678355 0.10449748 -0.13133182
-0.07193758 0.06176166 -0.09905915 0.06162371 -0.067763954 0.016032116 -0.006026275 -0.03504908
-0.10372729 0.039411474 0.083162636 -0.06840559 -0.09974801 -0.05343095 -0.057000138 -0.15743425
0.070884764 0.029032579 -0.14171807 0.035514865 0.07312574 -0.005340156 0.058283426 -0.026322203
0.03423559 -0.14990784 0.10365445 0.066778764 0.008396111 -0.008308281 0.13795768 0.01398589
-0.100155085 -0.039553866 -0.075021654 0.06076902 -0.08924649 -0.052894 -0.07549608 0.002941659
-0.12706095 0.021768719 -0.08301768 -0.12626429 -0.29377183 0.18650949 -0.14905526 -0.022694549
0.09871506 0.07222519 -0.08980705 0.0837541 -0.058903627 -0.100674324 0.074412346 0.10448488
-0.03139592 0.08285305 -0.017365424 0.08808 -0.16956444 0.018123265 -0.17415923 -0.13801141
-0.012850307 0.03463248 -0.03297373 -0.04882569 -0.08430787 0.098166056 -0.015165125 -0.024361594
-0.11862257 -0.10752988 -0.027127264 0.037563976 0.031560313 -0.028599983 -0.0781876 0.11743188
-0.060259547 -0.10673248 0.0074747377 -0.027108151 0.084307015 -0.004092984 -0.17814831 -0.12514153
-0.0385339 -0.06415923 0.03343885 0.14488976 -0.050234005 -0.035845898 -0.07767968 -0.06638277
-0.08686286 -0.12832607 -0.00386591 -0.089704975 0.017113449 -0.12916368 -0.0058944896 -0.06861211
-0.08194379 -0.032006267 0.01859174 -0.037990123 -0.05115174 -0.038729925 -0.059484094 0.04262978
0.06321436 0.09926544 -0.038002703 -0.087585375 0.026823696 -0.11022518 -0.12064846 0.040559318
0.056559067 -0.024165738 -0.07132774 -0.0020542946 -0.09604217 0.048295654 0.064550616 -0.13331556
0.07029323 -0.0431905 -0.19205025 -0.04148078 -0.051530104 -0.022937065 -0.017902015 -0.08622171
-0.059913155 0.053476933 -0.07116864 -0.014323022 0.0026621085 0.063830465 -0.19799879 -0.058861602
-0.047141872 -0.02093889 -0.028207688 -0.011028096 0.12462475 -0.03196335 0.099711664 -0.018506091
-0.06086773 -0.029229814 0.00928329 0.071616694 0.040169775 0.068911016 -0.10401042 -0.096491605
-0.3039118 0.027016835 -0.04039838 -0.048481718 -0.055526584 -0.09304938 0.015848098 -0.013366627
0.062098008 0.102943935 -0.06237521 -0.01270363 0.12258926 -0.12501794 0.1388092 0.0002615875
-0.009948128 0.07379722 -0.100534834 0.02419196 -0.1488479 -0.11164792 -0.021223659 -0.019696906
0.06390176 -0.012624045 -0.0119024785 -0.063123785 -0.04574841 -0.0119742965 -0.0314106 0.07903939
00000000: 1239 f2bb ef50 f93d 9592 d03b eaf1 87bd
00000010: ab7b 47bd 428f 56bd d292 f4bb 6b71 55bb
00000020: b0d9 71bc 7511 8d3c 86ab 40bd e734 87bd
00000030: 4a02 c1bd dd34 9b3d 9fa0 393d 55df ac3c
00000040: 610e e43c 3c19 8cbd 4eea f73c c3e8 40bd
00000050: 9c12 01be c536 efbc 8888 b4bc d363 c13c
00000060: 3d9f 1dbe 15b5 1f3d 01af 13be 642d 43bd
00000070: 378f 153c 92cf 943c 3d95 af3d 3e9d 21bd
00000080: 102f a13d 4650 803d 6201 e93d 334a 06be
00000090: d9bb 57bd f2a6 123d dc2c 1a3d 22f1 103e
000000a0: b847 c7bd defa 35bd a024 09be 083e cabd
000000b0: be5b 7c3d af40 d6bd a4ee 463c 26f9 39bd
000000c0: 21d3 823c fa93 b13c 3081 d3bd 8c16 dc3d
000000d0: 88e7 34bd 0114 b23d 18ae e4bd 496c 6c3c
000000e0: ca1f 12be 880a c83d 00db 61bd 792f 003d
000000f0: 783c d0bd b724 2d3c c602 d63d d97b 06be
00000100: 0354 93bd cbf9 7c3d 86df cabd 2569 7c3d
00000110: d4c7 8abd c955 833c 0f78 c5bb a08f 0fbd
00000120: f96e d4bd ed6d 213d 2c51 aa3d 3b18 8cbd
00000130: af48 ccbd 69da 5abd fa78 69bd 7236 21be
00000140: 082c 913d bbd5 ed3c 8b1e 11be 0978 113d
00000150: f3c2 953d 7afc aebb 9aba 6e3d a9a1 d7bc
00000160: 9e3a 0c3d 7181 19be c948 d43d 4ec3 883d
00000170: d88f 093c 751f 08bc c744 0d3e 1325 653c
00000180: 1c1e cdbd 3c03 22bd f4a4 99bd f0e8 783d
00000190: ddc6 b6bd 61a7 58bd b09d 9abd d9c8 403b
000001a0: 441c 02be 5054 b23c 2c05 aabd 6d4b 01be
000001b0: 4369 96be 58fc 3e3e f1a1 18be ebe9 b9bc
000001c0: 1f2b ca3d cdea 933d c2ec b7bd 4587 ab3d
000001d0: ee44 71bd 572e cebd 8065 983d 2bfc d53d
000001e0: 0299 00bd dcae a93d ef41 8ebc 4963 b43d
000001f0: 4da2 2dbe 3e77 943c cc56 32be dd52 0dbe
00000200: 188a 52bc cada 0d3d 760f 07bd 72fd 47bd
00000210: 9ba9 acbd 490b c93d 2577 78bc f791 c7bc
00000220: 64f0 f2bd a038 dcbd ff39 debc afdc 193d
00000230: 6345 013d 834a eabc d220 a0bd 2080 f03d
00000240: b7d2 76bd 8f96 dabd a5ee f43b ea11 debc
00000250: 28a9 ac3d 701e 86bb 836c 36be 1a25 00be
00000260: b9d5 1dbd ea65 83bd 2df7 083d fb5d 143e
00000270: 2cc2 4dbd 26d3 12bd 8616 9fbd b1f3 87bd
00000280: 28e5 b1bd e967 03be 355b 7dbb 3eb7 b7bd
00000290: 8131 8c3c 7c43 04be 9026 c1bb 8284 8cbd
000002a0: 25d2 a7bd 0119 03bd b44d 983c 889b 1bbd
000002b0: 7d84 51bd 45a3 1ebd 98a5 73bd 909c 2e3d
000002c0: 8876 813d ae4b cb3d b9a8 1bbd f65f b3bd
000002d0: 5ebd db3c bdbd e1bd 8a16 f7bd 8721 263d
000002e0: 7baa 673d 3af7 c5bc 4714 92bd 58a1 06bb
000002f0: c2b1 c4bd aad1 453d 1d33 843d e083 08be
00000300: e6f5 8f3d 86e8 30bd d2a8 44be c0e7 29bd
00000310: 3b11 53bd 83e6 bbbc 3fa7 92bc 0295 b0bd
00000320: 7f67 75bd a10a 5b3d ddc0 91bd 1cab 6abc
00000330: c576 2e3b 8cb9 823d 32c0 4abe dd18 71bd
00000340: d617 41bd 0988 abbc cf13 e7bc 30af 34bc
00000350: 433b ff3d 00ec 02bd a135 cc3d 169a 97bc
00000360: 7150 79bd 5d73 efbc f118 183c c6ab 923d
00000370: 1089 243d 3821 8d3d 6a03 d5bd 649d c5bd
00000380: 549a 9bbe 6952 dd3c c678 25bd c494 46bd
00000390: d86f 63bd ac90 bebd dfd3 813c b2ff 5abc
000003a0: 7b5a 7e3d 45d4 d23d 267d 7fbd e322 50bc
000003b0: 1410 fb3d b404 00be 0024 0e3e ae25 8939
000003c0: 79fd 22bc ff22 973d 35e5 cdbd 382e c63c
000003d0: 956b 18be aaa7 e4bd 3ddd adbc 685b a1bc
000003e0: edde 823d 15d5 4ebc 9d02 43bc 0b47 81bd
000003f0: af62 3bbd d72f 44bc 67a8 00bd 67df a13d

module.fc3.bias f4 [10]
0.08224707 -0.86711365 -0.03073038 0.1931403 0.8244637 -0.21465333 -0.08824595 0.11974953
0.15539733 -0.35493642
00000000: 2771 a83d 29fb 5dbf 47be fbbc 92c6 453e
00000010: 0e10 533f 15ce 5bbe 4bba b4bd 3e3f f53d
00000020: 7a20 1f3e 3aba b5be
